deeplearning/old_best.model (torch, 63313 bytes, 10 tensors)

weight f4 [40, 1, 8, 8]
000000 c6 4f b7 bd e4 de 83 3c a4 83 59 bd 94 6d c8 3d
       -0.089507625 0.016097493 -0.053104058 0.09786525
000010 7d 1e a2 3d b9 7d 2d bd b5 19 a7 bd 9a 82 22 bc
       0.079159714 -0.042356227 -0.081592 -0.009918833
000020 84 61 5a bd a9 cc c6 3d ed 7c 08 3e 96 1c 90 bd
       -0.053315654 0.097070046 0.13328905 -0.07036702
000030 90 6d 66 3c 7b 96 19 3d 98 d6 b2 bc 9a db 41 bd
       0.014064208 0.037497025 -0.021830842 -0.04732857
000040 e5 0d d8 3d 9b 43 0a 3d 82 cb b4 3d 21 f0 f9 bc
       0.10549525 0.03375588 0.088278785 -0.03051001
000050 34 c4 1e bc d6 44 a8 bd fb ca 1a 3d d4 3a 68 bd
       -0.009690333 -0.082162544 0.037791234 -0.056696728
000060 ce 5c e7 3d 33 9e df 3d e8 ee 3f bd 7b cb ba bc
       0.11296998 0.10918846 -0.046858698 -0.022802105
000070 a1 64 27 3d fb e5 27 3c fc 9f 29 bd 56 c6 4e bd
       0.04086745 0.010247703 -0.04141234 -0.050482117
000080 6d 93 d6 3d e3 b0 89 bd 68 24 8c bd 7e c5 27 3c
       0.10477338 -0.067231916 -0.068428814 0.010239957
000090 52 bd 6b bd 47 c5 a4 bd 72 5c b9 3d 8b a9 4e bd
       -0.057553597 -0.0804544 0.09050836 -0.050454658
0000a0 05 e0 63 be 11 c3 27 be a7 09 1f be d8 e2 93 bd
       -0.22253425 -0.16383006 -0.15531026 -0.072210014
0000b0 ee 5b 3e 3d d5 a2 4a bd 32 2b ba 3d 36 67 b9 bd
       0.04647439 -0.049471695 0.0909027 -0.09052889
0000c0 31 5c e4 bd 98 16 e4 bd 7c a0 96 bd 12 a3 1a bc
       -0.111503966 -0.11137122 -0.07354829 -0.009438293
0000d0 4f 4b df bd 94 e4 67 3d 07 98 21 3c 79 0e b3 bd
       -0.10903036 0.056614473 0.009862906 -0.08742995
0000e0 cb 16 b7 3d a6 92 ad bc 78 5f 85 3d ef b3 09 3c
       0.08939894 -0.021188091 0.0651235 0.008404716
0000f0 b9 eb 38 3d 1c 87 11 3b 56 8a ec 3d c2 93 cd 3d
       0.045146678 0.0022205776 0.11549823 0.10037948
000100 39 64 58 3e 5d b2 37 bd e8 42 aa 3d 80 a3 02 be
       0.21131982 -0.044847835 0.083135426 -0.12757683
000110 a7 d8 b7 3d 3b e6 2c 3d c4 bc 1e bb 5e ae 00 be
       0.0897687 0.042211752 -0.00242214 -0.12566516
000120 1f f8 03 3e d0 16 99 3c 8f e2 8a bd c3 d1 c0 ba
       0.1288762 0.018687636 -0.06781494 -0.0014710951
000130 b2 ca 07 3c c9 26 9c bd 7b fa d5 bd 67 d8 75 3c
       0.008288072 -0.07624585 -0.10448166 0.015005208
000140 06 ad 8f 3d 91 dd d1 3d 21 43 9b bd 24 1b 27 bb
       0.070154235 0.102473386 -0.07581163 -0.0025498355
000150 18 3b af bd 98 c9 9c bc 78 65 90 3c c6 0c f5 3b
       -0.08556193 -0.019139096 0.01762651 0.0074783294
000160 bc 29 87 3d c5 09 40 3d 98 62 f3 bd 2e 4c 19 bd
       0.06599757 0.046884317 -0.1188404 -0.037426166
000170 ce 0a 89 bb eb 7d c0 3c 8c 41 5f 3c 84 82 7f bd
       -0.004182196 0.023497542 0.013626467 -0.06238033
000180 00 a8 ba 3d 7e 5b 93 3d d7 14 f3 bd 08 f3 e7 bc
       0.09114075 0.07195185 -0.11869209 -0.028314129
000190 21 c7 78 3c b4 55 38 bd 29 32 93 bd 1d 01 eb 3c
       0.015184195 -0.045003608 -0.07187302 0.028687054
0001a0 d2 e8 ad 39 f3 3b c1 3d 6c 3c 52 be 1a 08 0a be
       0.00033170596 0.094352625 -0.20530862 -0.13479653
0001b0 e5 63 d0 3d fc 34 ac 3c 9d dc 86 3c ab ff 8f 3d
       0.10175303 0.021021359 0.016462618 0.07031187
0001c0 d6 02 d0 3d c6 95 cd 3c 47 a8 31 be 8f 13 07 be
       0.10156791 0.025095832 -0.17349349 -0.13191055
0001d0 f1 ad d5 bd 86 45 f3 ba 7c e0 ed 3d de e7 72 bd
       -0.10433567 -0.0018560148 0.116150826 -0.059303157
0001e0 3f 6c 39 3c ff 59 b7 3d 02 ba 2f 3d 09 43 c8 bc
       0.011317312 0.08952712 0.042902 -0.024446027
0001f0 22 84 2c bd 4c 3b 3b bd df 7b 0b be 1e f6 e2 ba
       -0.0421182 -0.045710847 -0.13621472 -0.001731578
000200 2e cc de 3d ae 49 f7 3d 0f a1 8e bc b2 dd e7 bd
       0.10878788 0.120746 -0.017410783 -0.11321582
000210 ce 7a 96 bd 6c f4 70 3d 4c 05 64 bd 1f d1 7b bd
       -0.07347642 0.05882685 -0.055669114 -0.06147873
000220 3c 0b 1f bd 93 5c 09 be 86 0d 59 3d 4f 69 12 3d
       -0.038829073 -0.1341422 0.052991413 0.03574496
000230 27 7f e9 3d f0 86 02 3e d0 7f 16 3d f0 45 d4 3b
       0.114012055 0.12746787 0.036742985 0.0064780638
000240 4a 95 a7 bd 74 53 94 3d 64 b3 0e 3c 80 f1 86 bd
       -0.081827715 0.0724248 0.008709762 -0.06589031
000250 b2 6b 4f bd 5a c7 b3 3d 70 cc e3 bc 0f 63 84 3c
       -0.050639816 0.08778258 -0.027807444 0.016160516
000260 bc 69 50 3d 0f 3c 51 bd 3f 4e 80 bd 1f 55 ac bb
       0.050882086 -0.051082667 -0.06264924 -0.0052591707
000270 b2 6e 7c ba e0 d4 a7 3d 54 7d 90 3b 53 70 49 3d
       -0.0009629532 0.081948996 0.0044094715 0.049179386
000280 d0 8a 9e bd 78 12 68 bd d1 3d 2e bc 6a 3a bc 3d
       -0.0774132 -0.05665824 -0.010634855 0.09190829
000290 f1 fa a2 3d e0 f8 9d 3c 7a 0f ab bd 0c f4 69 bd
       0.079580195 0.019283712 -0.08352561 -0.057117507
0002a0 ab 3e 03 bd 93 c4 dc bd 10 9c d1 3d 1e 01 f3 bd
       -0.032042187 -0.10779681 0.10234845 -0.118654475
0002b0 6c 29 4b 3d 89 4a 11 be 46 be 51 bd 50 d0 00 be
       0.04960005 -0.14188589 -0.05120685 -0.12579465
0002c0 d7 a2 41 3d 7d 3c 8b 3c 57 31 af 3c de 68 ba bd
       0.047274437 0.016996616 0.021385832 -0.09102033
0002d0 50 01 bf bd 6e 3c a6 bd 3e b4 1f bc 1e b4 ea bd
       -0.09326422 -0.08116995 -0.009747563 -0.11460136
0002e0 f6 7d 28 3e 11 c8 13 3e 8e fe ab 3d a5 59 8f 3d
       0.164543 0.14431788 0.08398162 0.0699952
0002f0 1f 5e a8 bd da 27 55 3d 31 9e ec 3d 32 c3 16 3d
       -0.08221077 0.05203996 0.1155361 0.036807247
000300 90 73 1a 3d 7f 5a 04 3d 43 17 04 bd 08 ca 50 3d
       0.037707865 0.032312866 -0.032248747 0.050973922
000310 b9 b0 0f bd 90 ef de bd f3 df b3 bd bf bb 85 bd
       -0.035080645 -0.10885537 -0.08782949 -0.0652995
000320 4f 6e 5f bb 95 1b 5f bd f8 86 84 bd 58 fd 4e be
       -0.0034092849 -0.054469664 -0.06471056 -0.2021383
000330 94 3a 77 be f0 1c 57 be 2c 9a ce bd 21 23 42 bd
       -0.2414344 -0.21007133 -0.10088 -0.047396783
000340 d4 4b dd bc 9b d6 4f bd 83 ed 45 bd e0 83 3a 3d
       -0.027013697 -0.050741773 -0.048322212 0.045535922
000350 bd b6 2d bd b5 a5 e7 bc 92 7e da bd f1 18 bb bd
       -0.0424106 -0.028277257 -0.106686726 -0.091356166
000360 67 9b e7 3c 88 5b 52 bb 22 a4 25 3d 97 a8 bd 3d
       0.028272344 -0.0032098014 0.040439732 0.092606716
000370 3c 42 0d bc be 6e 1b bd a7 1e 01 3e 72 af 6e 3b
       -0.008621749 -0.03794741 0.12609349 0.0036420492
000380 1a 1a e5 bc 52 ca 84 bd db 1d 6a 3c 71 e2 2e 3c
       -0.027966548 -0.06483902 0.014289345 0.010674105
000390 7c e8 4b bd 19 8e f6 3c b3 9e ea 3d e7 1f 5a be
       -0.04978226 0.030097054 0.11456051 -0.21301232
0003a0 1b 47 6d 3c d5 9c 63 3c 7a 4f e9 3d 08 08 0a 3d
       0.014482285 0.013892372 0.11392112 0.033699065
0003b0 8d fe 82 bd 2f 0f 82 bd 67 95 24 3e b4 9c e7 bc
       -0.06396208 -0.06350552 0.16072617 -0.028272964
0003c0 5d e8 b7 bd 05 56 f6 3c 8b a9 7d bd 28 62 dd bd
       -0.08979867 0.030070314 -0.061929267 -0.108097374
0003d0 4a a8 85 bc 2c 74 d7 bd 1d 8c b6 3d 34 05 f6 bd
       -0.016315598 -0.10520205 0.08913443 -0.12012711
0003e0 82 81 eb 3a a4 df 2a 3d 8b db 22 bd 9f fb bb 3d
       0.0017967673 0.041717187 -0.039760154 0.09178852
0003f0 aa ad 11 bd 1e 79 ea bc e6 6f 14 3e a7 c2 f8 bc
       -0.03556601 -0.028622206 0.14495811 -0.030366255

bias f4 [40]
000000 a4 42 2e bc e2 36 26 3e 21 6b 8f be f5 81 66 bd
       -0.010636006 0.16231874 -0.2801142 -0.05627628
000010 b1 f0 3e be fe 8a 15 3e fb c4 dd 3d cd fd be bd
       -0.18646504 0.14603803 0.10828587 -0.093257524
000020 dc fe a3 3d 32 10 0b be 94 84 77 bd 75 54 07 bd
       0.08007595 -0.13580397 -0.06042917 -0.03303953
000030 17 a2 f9 3d 9a 6f 49 3e ac fa 17 be cc ad 9a bb
       0.12189119 0.19671479 -0.14841717 -0.0047204252
000040 aa 20 af 3d 54 1f af 3d 87 a0 69 be 05 60 06 be
       0.08551152 0.08550897 -0.22815143 -0.13122566
000050 dd 19 39 bd 04 7e 46 3d 5f 40 42 be c3 58 02 3d
       -0.04519068 0.04846002 -0.18969868 0.03182293
000060 ed e0 35 be 74 3d ea bd 0d 62 fd 3c 28 c3 41 be
       -0.17761584 -0.114375025 0.030930543 -0.18922102
000070 d4 ef a0 bc 12 d3 ea 3d 9e e9 4d be 94 7b 24 3e
       -0.019645609 0.1146604 -0.20108649 0.16062766
000080 94 6c 09 bd 95 f5 31 bd f4 35 91 3d 84 c9 6e be
       -0.033550814 -0.043447096 0.07090369 -0.2331906
000090 ba f6 48 3d 6a 92 32 be 68 cc 6f be e6 26 bc bd
       0.04906342 -0.17438665 -0.23417819 -0.09187107

weight f4 [40]
000000 af 40 82 3f 7e 69 8f 3f f2 5c 66 3f ed 56 88 3f
       1.017599 1.1204069 0.89985573 1.0651528
000010 61 01 79 3f 8a a7 8f 3f 96 a9 82 3f 63 2d 6a 3f
       0.9726773 1.1223004 1.0208004 0.91475505
000020 ce 46 90 3f 5a 96 82 3f 41 2e 57 3f 6e ab 8d 3f
       1.1271608 1.0202134 0.8405495 1.1067941
000030 eb 32 7b 3f e9 63 60 3f 6b 0c 87 3f 60 58 87 3f
       0.9812457 0.8765245 1.0550665 1.0573845
000040 e7 5b 8e 3f bd 58 8c 3f 3e 7f 83 3f d0 7d 67 3f
       1.1121796 1.0964581 1.0273206 0.9042635
000050 f5 59 80 3f 1c af 95 3f eb c7 8e 3f de 58 9a 3f
       1.0027453 1.1694064 1.115476 1.205837
000060 6d 1b 8b 3f f1 ba 8f 3f 36 95 97 3f 46 0f 7e 3f
       1.0867745 1.1228925 1.184241 0.99242055
000070 3b 29 81 3f 2a 46 62 3f 9f 94 88 3f 45 ff 8d 3f
       1.0090708 0.8838831 1.0670356 1.1093527
000080 49 e4 86 3f 79 75 7e 3f 54 d2 8c 3f c6 2c 71 3f
       1.0538417 0.99398 1.1001687 0.94208944
000090 22 dd 86 3f ab 18 7f 3f d7 62 7f 3f 12 99 85 3f
       1.0536234 0.99647015 0.9976019 1.0437338

bias f4 [40]
000000 fe 4e 7d 3a 56 e9 73 3d c9 f4 77 bb 54 a9 5a 3d
       0.0009662955 0.0595487 -0.0037835112 0.05338414
000010 ec 69 d6 bb 45 71 11 3d a3 31 7f 3b 38 e3 1d bd
       -0.0065433886 0.035508413 0.0038939498 -0.03854677
000020 42 c3 fd bc 3f 85 c0 3b 56 cc 3c bd a2 f8 11 3b
       -0.030976895 0.005875259 -0.046093307 0.002227344
000030 30 9d 9a 3c d7 26 48 bd b1 c6 ab ba a7 72 4a 3d
       0.018873781 -0.048865166 -0.0013105479 0.049425747
000040 fb b8 87 bd 0f e8 17 be f8 0c 66 bd 04 4e 69 bd
       -0.06627079 -0.14834617 -0.05616471 -0.056959167
000050 94 13 0f bc 42 a0 77 3d 53 aa e7 bb cc 3f 75 3d
       -0.008732695 0.060455568 -0.007069865 0.059875295
000060 4b ff 86 bb 66 c2 98 3d 72 08 0b 3d 01 f5 99 bc
       -0.0041197888 0.074589536 0.0339436 -0.018793585
000070 51 d0 ea bc 5b bf b2 bc cc 37 17 39 80 05 f8 3c
       -0.028663786 -0.021819761 0.00014421268 0.03027606
000080 92 ed dc 3c c8 9c ef bc 22 af a8 3c 0f d4 07 bc
       0.026968751 -0.029249564 0.020591322 -0.008290305
000090 df e3 7b 3d 20 04 5d bd 32 e2 9f 3b 16 f6 c7 bc
       0.06149661 -0.053959012 0.0048792595 -0.024409335

running_mean f4 [40]
000000 99 aa 43 41 44 bd 5b 41 97 e0 a5 41 15 9c f0 3f
       12.22915 13.733707 20.734663 1.8797632
000010 57 51 ab 41 48 23 69 40 64 03 81 41 b7 d3 d0 41
       21.414717 3.6427784 16.126656 26.103376
000020 4a 43 3c 40 fe a1 8b 41 ec d8 d5 42 4a 78 ba 40
       2.941607 17.454098 106.923676 5.8271837
000030 86 46 ee 40 9e 97 1b 42 cb 76 9a 40 26 1c 00 40
       7.446109 38.898064 4.827001 2.001718
000040 98 86 b1 40 ae ef cd 3e 21 46 7d 41 64 bd 21 42
       5.54768 0.40221924 15.829621 40.43495
000050 68 38 0b 41 cd 8c cb 3f f5 c3 da 40 7e 8c 10 40
       8.701271 1.5902344 6.8364205 2.258575
000060 6e 3e 57 41 92 dc c1 40 a2 ed 71 40 a5 13 79 41
       13.452742 6.058175 3.780129 15.567296
000070 30 65 99 41 ba 8d 03 42 79 16 8f 41 94 02 ba 40
       19.174408 32.888405 17.885973 5.8128147
000080 89 5e d9 40 0e 15 ee 41 f1 3b cf 40 76 8b ce 41
       6.79279 29.76028 6.476067 25.818096
000090 18 01 84 40 5f a6 05 42 9f 62 a6 41 82 af 2b 40
       4.1251335 33.41247 20.798155 2.6825871

running_var f4 [40]
000000 dc 7b 23 44 7a 63 8a 44 5f 70 90 44 86 a5 80 42
       653.9353 1107.1086 1155.5116 64.32329
000010 bc b5 90 44 5f 56 16 43 b4 63 69 44 57 65 9e 44
       1157.6792 150.33739 933.55786 1267.1669
000020 6f 62 d1 42 ba ce 6b 44 51 04 10 46 94 5c 70 43
       104.69225 943.2301 9217.079 240.36163
000030 21 d3 c2 43 86 43 d1 44 55 30 2c 43 bb ff 6b 42
       389.64944 1674.1101 172.1888 58.999737
000040 62 85 6f 43 5d f4 da 40 2e 48 5c 44 83 c5 14 45
       239.52103 6.8423295 881.1278 2380.3445
000050 8a ab ed 43 84 50 46 42 82 9c ae 43 e0 c8 ab 42
       475.34015 49.57863 349.22272 85.892334
000060 a0 6d 40 44 c8 f6 aa 43 a7 7b 1b 43 75 b9 33 44
       769.7129 341.92798 155.48302 718.89777
000070 49 e2 84 44 92 50 e6 44 c7 87 b2 44 20 e8 80 43
       1063.0714 1842.5178 1428.243 257.81348
000080 16 11 b4 43 39 d6 ee 44 f4 37 95 43 a8 ff cd 44
       360.13348 1910.6945 298.43713 1647.9893
000090 c9 5e 45 43 d0 1e 04 45 bf 9b b3 44 a5 57 c3 42
       197.37025 2113.9258 1436.8671 97.67118

weight f4 [8, 40, 6, 6]
000000 f1 f8 32 3d ec 2d 17 3d b8 28 37 3c 02 ff 2a bc
       0.04369444 0.03690903 0.011179142 -0.010436775
000010 5d f5 a6 3b 38 f9 e4 bb 83 39 fd 3c 5f 73 cd 3c
       0.0050951676 -0.006987717 0.030911213 0.025079427
000020 6d 57 35 3d 09 b6 93 bc f5 71 29 bc 99 48 1e bc
       0.04427283 -0.018031137 -0.010342111 -0.009660863
000030 84 dd 62 3d 8a 48 53 3c c1 c1 96 3c b1 9a 15 bc
       0.055387035 0.012895713 0.018402936 -0.00913112
000040 3c 01 8b 3c 74 e9 ad 3c 93 f6 fd 3c 74 b0 0d 3c
       0.016968362 0.021229483 0.031001365 0.008648027
000050 9f b9 54 bc e4 59 0e 3b 52 3e 30 3d 7f bc 11 3d
       -0.012983709 0.002172106 0.043028183 0.035580155
000060 55 60 90 3c 63 dc 4f 3d df be 61 3b f5 0d b7 3c
       0.01762406 0.050747287 0.0034446043 0.022345522
000070 11 c7 ea 3c 85 00 c0 3d 4b 95 2c 3d ca 0f f2 3c
       0.028659375 0.09375099 0.042134564 0.029548544
000080 a2 73 62 3d 0e 0f 9e 3d e0 c1 86 3d fe 07 95 3d
       0.055286057 0.07717715 0.065799475 0.07276915
000090 2b d1 d7 3c 84 e9 17 3d 07 bf 3e 3d 02 14 f6 3c
       0.026344856 0.037087932 0.046568897 0.030038837
0000a0 b2 3b 15 bd 7f 23 40 bc ea 3f 7a bb 55 57 73 bc
       -0.036433883 -0.011727213 -0.0038185068 -0.014852365
0000b0 47 f7 98 3b 8c 59 f9 3c 9a bc 28 bb 5d e0 0d bc
       0.0046681496 0.030438207 -0.002574718 -0.008659449
0000c0 a6 8b cc bc 8b 88 8b bc 94 0b 36 3c 7b e3 cd 3b
       -0.024968933 -0.017032882 0.011111159 0.0062832213
0000d0 06 c5 d4 3b 2f a2 d3 3c 8a 33 d3 3c 00 5e 1d bd
       0.0064932136 0.025834171 0.025781412 -0.038419724
0000e0 10 6d a3 3c 94 76 99 bb ab 31 7a 3b 4e 19 93 bc
       0.019949466 -0.004683325 0.0038176577 -0.017956402
0000f0 5c a9 ce bc b9 e0 b0 bb 04 7a a3 bd c0 24 7f bd
       -0.025227241 -0.005397883 -0.07982257 -0.062290907
000100 ac f9 15 bd d5 bb 9d bd ae 64 91 bd 26 f8 c6 bd
       -0.03661506 -0.07701842 -0.07099281 -0.09715299
000110 53 74 07 be 9d 13 a8 bd 7e 6d c6 bd f5 9e ae bd
       -0.13227968 -0.08206866 -0.09688853 -0.085264124
000120 44 e0 8c bc 08 e8 10 3b 07 6c d3 bc b2 55 55 bb
       -0.017196782 0.0022110958 -0.025808347 -0.00325523
000130 c8 9d 3d bc c6 b1 d2 3c 83 dd 38 bc 83 2c e3 bc
       -0.0115732625 0.025719535 -0.011283281 -0.027731186
000140 cd 7a 3d 3c bf e2 d2 3b 52 47 68 3c 78 84 46 bb
       0.0115649225 0.0064357216 0.01417716 -0.003029136
000150 4d 31 05 3c c7 4a 9d 3b 44 88 dd 3a 9e 95 ed 3c
       0.00812943 0.004800174 0.0016901572 0.029002007
000160 a3 c6 0a bc 66 cc bc 3c f2 68 e4 3c 54 5b d2 3c
       -0.00847021 0.023046684 0.027882073 0.025678314
000170 1e 4e 9f 3c c3 0e 31 bc 9e 3a 81 3c b2 69 f2 3c
       0.019446429 -0.010806742 0.015775021 0.029591415
000180 9b 7d 42 3d 1f 23 03 3d 52 e0 13 3d 24 7b 30 bb
       0.047483068 0.032015916 0.0361026 -0.0026928866
000190 50 39 6f bb f3 5a 50 bb 9b 27 46 3d 52 c8 75 3d
       -0.0036502667 -0.0031792491 0.048377614 0.060005493
0001a0 14 55 fc 3c f7 60 d0 3c 70 20 12 b9 d2 4e b1 3c
       0.030802287 0.025436861 -0.00013935729 0.02164403
0001b0 35 8c 7c 3c 84 52 e8 bc e7 34 50 bd 66 d3 77 bc
       0.015414287 -0.028359659 -0.0508317 -0.015126085
0001c0 f9 b9 08 3d 66 c9 83 3d f1 23 30 bd d9 cb c5 bc
       0.033380482 0.06434898 -0.043003026 -0.024145054
0001d0 e4 22 85 bd 1b f5 32 bd 75 c1 f9 3c 3a b1 8c 3d
       -0.065007955 -0.043690782 0.030487755 0.06869741
0001e0 4b d5 0a bd 89 bc 81 bd 7c 52 93 bc 80 07 8b bd
       -0.03389482 -0.06334788 -0.017983668 -0.0678854
0001f0 1f e8 0d 3c e0 25 72 3d 00 9a 10 bd 73 16 26 bd
       0.008661299 0.05911815 -0.035303116 -0.040548753
000200 7e 71 ff bc aa e8 a5 bd b2 2c 4e 3c 41 04 a9 3d
       -0.031182047 -0.08101018 0.012583898 0.082527645
000210 2c 2d 03 3c a6 1d 88 bc 8e e9 12 bc d9 94 5c bd
       0.008006375 -0.0166157 -0.008966817 -0.05385289
000220 ab c9 80 bc 6b e2 6f 3d e9 38 80 3c 91 ee e4 3c
       -0.015721163 0.05856554 0.015652137 0.027945789
000230 1b 8c 13 3d 4c a1 e7 3c 93 43 fa 3c 34 a4 0d bc
       0.036022287 0.028275155 0.0305498 -0.008645106
000240 40 c2 52 bb d3 ec ac 3c 61 e4 db 3b b6 db e7 3c
       -0.003215924 0.02110902 0.0067105745 0.028303009
000250 4f 86 b5 3c fb 11 65 3c 3a 86 ea bc f4 7e fa 3c
       0.02215877 0.013981338 -0.028628457 0.030578114
000260 c4 55 67 3c 66 4b 69 bc e9 62 25 3d e6 bd a2 bc
       0.014119569 -0.014239168 0.04037753 -0.019865941
000270 91 aa da 3c 27 ac ed 3a 32 ab c7 3b d9 fd 41 3c
       0.02669266 0.001813297 0.006093406 0.011840307
000280 29 52 a7 3c a3 fa 14 3d 9f 69 df 3c d6 26 cc bb
       0.02042492 0.03637184 0.027272044 -0.0062302155
000290 58 fa fe 3c fc 54 e7 3c b5 1f 68 3d 8d 40 c2 3c
       0.031125233 0.028238766 0.056670863 0.02371242
0002a0 6d 37 fa 3c fc 64 13 3d 76 cc 5f 3c 64 71 26 3d
       0.030544007 0.035984978 0.013659587 0.04063548
0002b0 18 d7 5b 3d 38 f6 03 3d 8a ac b6 bc 3a 77 af bc
       0.053671926 0.032217234 -0.02229907 -0.021419156
0002c0 95 ad a6 3c ee e2 9c 3c fd ef 45 3d 8d 96 4d 3b
       0.020346442 0.019151177 0.048324574 0.0031370253
0002d0 81 51 14 3c f7 c2 06 3d e1 2b df bc 3e f4 2e bb
       0.009052635 0.032900777 -0.027242603 -0.0026695873
0002e0 30 c4 0e bd 6f 44 79 ba f5 4f 35 3b 55 51 20 3d
       -0.034855068 -0.00095087936 0.0027666066 0.039140064
0002f0 52 f6 31 3c f9 e0 be bc 2f a4 06 bd 4c 96 11 3c
       0.01086195 -0.023300635 -0.03287142 0.008885931
000300 a4 7e 1c bc 3c 28 21 3d 44 2f 7e ba 3d 8b 2b bd
       -0.009551678 0.03934501 -0.0009696374 -0.041880835
000310 d1 d8 a4 bb 61 37 32 bd 54 f0 d9 3c 15 ef 69 3d
       -0.0050307293 -0.043509845 0.026603855 0.057112772
000320 ef 3a 23 bb 85 8b fb bc 0b 2e 34 bd 6d 45 da bc
       -0.0024906953 -0.030706177 -0.043989222 -0.026644433
000330 3c 35 9c 3c 22 05 50 3d 54 e4 d8 bc c3 b0 dc bc
       0.019068353 0.050786145 -0.026476063 -0.026939755
000340 02 3a 01 bc be 5e 74 3d f6 6c 43 3b 74 73 3a bb
       -0.007887365 0.059660666 0.0029819584 -0.0028450163
000350 86 a2 8e 3c dc db 0c 3c 1a 56 a2 3c c9 d1 6a bc
       0.017411482 0.00859734 0.019816447 -0.014332243
000360 b2 6c f9 3c 0c 42 1e 3d e8 83 56 3d a2 5b f5 bb
       0.030447338 0.038637206 0.05237189 -0.00748773
000370 b1 93 14 3d 20 f5 d9 3c 93 a2 1d 3d 0e 2f f6 38
       0.036273662 0.026606143 0.03848512 0.00011738959
000380 d0 27 ab 3b fe 11 d7 bb 17 f5 9f 3b 8a 79 06 b9
       0.005223252 -0.006563424 0.004881512 -0.00012824513
000390 50 04 8d 3c 57 0e 2e bd 65 3d b1 3c a7 07 1e 3d
       0.01721397 -0.042494144 0.02163572 0.038581517
0003a0 3f 57 c5 bc 73 64 80 bb ca 80 fa bb 13 0b 81 bc
       -0.024089454 -0.0039182245 -0.0076447474 -0.01575235
0003b0 fc 72 99 bc b2 37 25 ba 79 42 66 bd 2e a3 94 bc
       -0.018731587 -0.000630255 -0.056215737 -0.018144216
0003c0 32 84 ec bc a1 3d 8e bc 15 ec ce bb 1f ca a4 bc
       -0.02887163 -0.017363371 -0.0063147643 -0.02011591
0003d0 0e d3 01 bd 4c 59 c5 3c be 29 08 3d 94 e8 c5 3c
       -0.031695418 0.024090432 0.033242933 0.024158753
0003e0 41 a0 2a 3d 4f f8 14 bc 9e 4e b6 3c ef 42 56 3d
       0.041656736 -0.0090924045 0.022254284 0.052309927
0003f0 32 21 57 bb 2b 35 0a bc e6 3d 07 3b ca c0 78 3b
       -0.0032826182 -0.008435528 0.002063626 0.0037956708

bias f4 [8]
000000 de db d6 3c 56 a7 df bb b2 74 07 3c 71 bc 4f bd
       0.026227888 -0.006825368 0.008267568 -0.05071682
000010 45 c0 bf 3c c2 6c d2 3c e9 8f 79 3c b3 2b 3b 3d
       0.023407111 0.025686625 0.015232065 0.04569597

weight f4 [8, 8]
000000 d5 df 30 be c6 49 99 3e 65 a3 17 bd 96 32 3d 3e
       -0.17272885 0.29939097 -0.03702106 0.18476328
000010 a0 ec f2 3d 12 89 c4 3e 2e 01 a3 3d a0 7a 3d 3d
       0.11861539 0.38385826 0.079592094 0.046259522
000020 42 55 be bd 03 17 df 3d ba 03 d9 bd 17 a5 ad bd
       -0.092936054 0.10893061 -0.10596414 -0.08478754
000030 90 6e 45 3e 29 27 01 3d 1e 83 5d 3e aa 0f bb be
       0.19280457 0.031531487 0.21632048 -0.36535388
000040 ca 52 aa 3e 96 27 32 3e 50 e2 4a 3e 11 6d df 3d
       0.33266288 0.17397913 0.19812894 0.10909475
000050 7a f5 02 3e 69 d0 f8 3c 01 ad 7e 3e d2 47 c2 3e
       0.12788954 0.030372815 0.24870683 0.3794542
000060 95 6d 79 3d 5a 80 8e 3e 0f 7f 97 be 5e 03 a0 bb
       0.06089552 0.278323 -0.29589126 -0.004883214
000070 d5 83 f6 3d fd b9 8b 3e 56 06 77 be 85 0c 91 bd
       0.12036864 0.27290335 -0.2412351 -0.07082466
000080 23 db 9f 3e bc 70 80 bd 5d ce 8f 3e 6c 9f 6f 3e
       0.31221876 -0.062715024 0.2808713 0.23400658
000090 0b 11 81 bd eb 07 5a 3e 0b eb a5 3e dd b6 d7 3d
       -0.06302079 0.21292083 0.32405886 0.10532925
0000a0 93 2e de bd 1a 83 3b bd 24 f0 a4 3d c3 30 a7 be
       -0.10848727 -0.045779325 0.08053616 -0.3265439
0000b0 46 d1 63 3e de 26 9c be 94 04 53 3e 1f 57 6b be
       0.222478 -0.30498403 0.20607215 -0.22982453
0000c0 76 4a a2 be 77 87 9e 3d c0 87 d9 bc fd f7 84 be
       -0.31697434 0.077406816 -0.026553988 -0.2597045
0000d0 af 01 c9 3d ad ef 31 3e 7f 39 74 be 26 46 99 3e
       0.09814774 0.17376585 -0.23850058 0.29936332
0000e0 86 e9 82 3e 1e 85 b0 bd 0d fc b2 be a2 7f 9c 3e
       0.2556879 -0.0861914 -0.34957924 0.30566126
0000f0 0e 4b 2a be 21 7a 8f 3d d0 e2 16 3e 5a 40 62 bd
       -0.16630194 0.07005716 0.1473496 -0.05523715

bias f4 [8]
000000 1b 3f 97 3d 6a ac 7f be 3f e0 5f be b3 34 36 be
       0.07385083 -0.24968114 -0.21862887 -0.1779354
000010 0c f7 89 be 80 80 a9 3e b7 cd a4 3e 2f d2 a5 bd
       -0.26946294 0.3310585 0.32188198 -0.0809673
